chatbot_model.onnx (onnx, 55701 bytes, 6 tensors)

StatefulPartitionedCall/sequential/dense_2/MatMul/ReadVariableOp:0 f4 [64, 3]
0	0xbf09278d	-0.53575975
1	0xbdd70252	-0.104984894
2	0x3eef9c60	0.46798992
3	0x3e0a39af	0.13498567
4	0xbeffc93b	-0.49958214
5	0x3edfbf9e	0.4370088
6	0xbddeb893	-0.108750485
7	0xbe731a68	-0.23740542
8	0x3d5037c8	0.050834447
9	0x3e98e517	0.29862282
10	0x3eb212a7	0.34779856
11	0xbf08faaa	-0.53507483
12	0x3db1c660	0.08680415
13	0x3d837001	0.064178474
14	0x3eacce28	0.33751035
15	0x3e9d6410	0.30740404
16	0xbe9f3fea	-0.3110345
17	0xbeba098d	-0.36335412
18	0xbf257473	-0.6463081
19	0x3e86b637	0.26310894
20	0x3e98a0bd	0.29810134
21	0x3e9fd631	0.31218103
22	0x3e7ba8fb	0.2457618
23	0xbe75ef52	-0.24017075
24	0x3eb3ebdc	0.35140884
25	0xbed29ab8	-0.41133666
26	0xbcef08a3	-0.029178923
27	0x3d04da7f	0.032434937
28	0xbe86943d	-0.26284972
29	0xbd5a9ef8	-0.05337426
30	0xbdcf166a	-0.10111697
31	0x3df2015a	0.11816664
32	0xbdfd658f	-0.123728864
33	0x3ef61dcf	0.48069617
34	0xbcbe0c96	-0.02319936
35	0xbd095241	-0.03352571
36	0x3de9df8e	0.11419593
37	0x3e82baf3	0.25533256
38	0xbd8b397a	-0.06798072
39	0x3daee9e1	0.085407026
40	0xbe5dc3c0	-0.21656704
41	0xbe0e07cd	-0.13870163
42	0x3e7e5cf1	0.24840142
43	0x3e243adc	0.16038078
44	0x3d24fb3a	0.04027865
45	0x3f127fca	0.5722624
46	0x3e51c62f	0.20485757
47	0xbe073a83	-0.13205914
48	0x3e2d284b	0.16909902
49	0xbeb7af98	-0.35876155
50	0xbec02ebc	-0.37535655
51	0x3ea053ad	0.3131384
52	0xbee3cd0d	-0.4449238
53	0x3eca3e18	0.395005
54	0x3ed50aae	0.4160971
55	0xbeb1b8c5	-0.3471128
56	0x3e01673a	0.12637034
57	0xbeb305b2	-0.34965283
58	0x3e96938a	0.29409438
59	0xbec40bba	-0.38290197
60	0x3eaf7327	0.34267542
61	0xbe200f35	-0.15630801
62	0xbe1103af	-0.14161561
63	0xbe6594a9	-0.2241999
64	0xbe1781a4	-0.14795548
65	0x3ecdbc7b	0.40182862
66	0xbe2d5dfc	-0.16930383
67	0xbe10b55e	-0.14131686
68	0xbddb41a4	-0.10705879
69	0xbe478c88	-0.19487202
70	0xbe9b0729	-0.302789
71	0x3ee2b7df	0.44280908
72	0x3ce9950f	0.02851346
73	0x3d8d2c82	0.06893255
74	0xbe84b7d0	-0.25921488
75	0xbe6b94d6	-0.23005995
76	0x3f24f9e2	0.6444379
77	0xbe845a43	-0.25850114
78	0x3eb419c7	0.35175917
79	0xbeb7d8d4	-0.35907614
80	0xbdbca224	-0.09210613
81	0x3df21eef	0.11822306
82	0x3e260332	0.16212156
83	0xbdef1e14	-0.11675659
84	0xbecf61e2	-0.40504366
85	0x3f1d9781	0.615593
86	0xbe49fd55	-0.19725545
87	0xbd9d2292	-0.076726094
88	0x3f0a490c	0.5401771
89	0xbd5c6c34	-0.053814128
90	0xbdf4468c	-0.11927518
91	0x3e3beb55	0.18351491
92	0xbe32467e	-0.17409703
93	0x3b15baec	0.002284701
94	0x3de24028	0.11047393
95	0x3e974495	0.2954451
96	0x3ea47618	0.32121348
97	0x3e577af6	0.21043
98	0xbe6fdffe	-0.2342529
99	0x3e9dc14f	0.30811545
100	0xbecd4833	-0.40094146
101	0xbe00482c	-0.12527531
102	0x3e7b0a29	0.24515595
103	0x3dd3383f	0.103134625
104	0xbe1ab75b	-0.15109007
105	0x3db43338	0.08798832
106	0xbe4b1efc	-0.19836038
107	0xbe73e22d	-0.23816748
108	0xbbd615ec	-0.006533375
109	0x3e55bb7a	0.20872298
110	0x3e4e2147	0.20129882
111	0x3dfaac59	0.12239904
112	0x3e7cb383	0.24677853
113	0x3e80955c	0.25113952
114	0xbe336735	-0.17519839
115	0x3f0a7c09	0.5409551
116	0x3d6a4e51	0.057203595
117	0xbe2a0753	-0.16604356
118	0x3e29ee74	0.16594869
119	0xbdb79337	-0.08963626
120	0x3ea28689	0.31743267
121	0x3d8653b7	0.06558936
122	0x3e183e7b	0.14867584
123	0xbf0926f8	-0.53575087
124	0x3e84389a	0.25824434
125	0x3e9dceb9	0.3082178
126	0xbccf4394	-0.025300778
127	0xbea40c8b	-0.3204082
128	0xbea1a5c3	-0.3157178
129	0x3e8f989f	0.28046128
130	0x3ef28b83	0.47372064
131	0xbf1d00af	-0.6132917
132	0x3e989049	0.2979758
133	0xbef53798	-0.47893977
134	0xbe9bc0e6	-0.30420607
135	0xbe36aebb	-0.17840092
136	0xbe4a3fd3	-0.1975091
137	0xbe3b5087	-0.18292437
138	0x3e36775e	0.17818972
139	0x3f079dd1	0.52975184
140	0xbe9d8774	-0.30767405
141	0x3f04b334	0.5183594
142	0xbea474b2	-0.3212028
143	0xbaaed811	-0.0013339539
144	0xbeaedfa2	-0.34154993
145	0xbe07e422	-0.1327062
146	0x3e1811c9	0.14850534
147	0x3d971425	0.07376889
148	0xbd8d54a4	-0.069009095
149	0x3c51440e	0.012772573
150	0xbd67eb5f	-0.05662095
151	0xbee2a780	-0.44268417
152	0x3ed6c93a	0.419504
153	0xbd784226	-0.06060996
154	0xbe5829e5	-0.21109731
155	0x3e3dbd9c	0.18529361
156	0x3c816a72	0.015797827
157	0x3e9cd8d3	0.30634174
158	0x3e86d45b	0.2633389
159	0xbd01999e	-0.03164064
160	0x3efe6234	0.49684298
161	0x3df21d97	0.1182205
162	0xbe3e0d91	-0.18559863
163	0x3e0577d1	0.13033988
164	0xbdc43e3d	-0.095821835
165	0xbeb27a76	-0.34859055
166	0x3ee225bb	0.4416941
167	0x3c9b2dc7	0.018942727
168	0xbb303216	-0.0026885322
169	0xbe949d7a	-0.29026395
170	0xbdafb337	-0.085791044
171	0xbd3b219e	-0.045686357
172	0x3e9a23ec	0.3010553
173	0xbea5b608	-0.3236544
174	0xbe40b405	-0.18818672
175	0xbe8f6b30	-0.28011465
176	0x3f150024	0.5820334
177	0xbdfb4f04	-0.122709304
178	0xbedfec9e	-0.43735212
179	0x3ecac936	0.39606637
180	0xbe65ae8f	-0.2242987
181	0x3d5880b0	0.0528571
182	0x3ed9f431	0.42569116
183	0xbe89db85	-0.26925293
184	0x3d2fb023	0.042892586
185	0x3f2064e3	0.6265394
186	0x3ed801e9	0.42188957
187	0xbed09e43	-0.40745744
188	0x3eb2013d	0.3476657
189	0x3e0ff171	0.14056946
190	0xbed7dbba	-0.42159826
191	0x3e6d9b65	0.2320381

StatefulPartitionedCall/sequential/dense_2/BiasAdd/ReadVariableOp:0 f4 [3]
0	0xbf01d1ec	-0.5071094
1	0x3ef6414c	0.48096693
2	0x3cd628df	0.026142536

StatefulPartitionedCall/sequential/dense_1/MatMul/ReadVariableOp:0 f4 [128, 64]
0	0xbdc4b03c	-0.096039265
1	0xbc4844cf	-0.0122234365
2	0xbdf06ce3	-0.117395185
3	0xbd1ce84a	-0.038307466
4	0x3de1f49f	0.11032986
5	0xbe0a2ae5	-0.13492925
6	0x3db5d465	0.08878402
7	0x3e0beb8d	0.13664074
8	0xbdc6d67c	-0.097088784
9	0xbdce40c9	-0.100709505
10	0x3c764f30	0.015033528
11	0xbe06a825	-0.1315008
12	0x3d0b5802	0.034019478
13	0xbc25414f	-0.010086372
14	0x3e2de991	0.1698363
15	0x3d809419	0.062782474
16	0xbd8d2aa7	-0.06892901
17	0xbde66750	-0.11250174
18	0xbd8cb93a	-0.06871267
19	0xbe0f1c02	-0.13975528
20	0x3dc51048	0.09622246
21	0x3e26a149	0.16272463
22	0xbe1c187d	-0.15243717
23	0x3d8357f9	0.06413264
24	0x3e1ba198	0.15198362
25	0x3ccd319e	0.025048073
26	0x3d812863	0.06306531
27	0x3d2f037a	0.042727925
28	0x3d2ed6aa	0.04268519
29	0x3dda088e	0.10646163
30	0xbd32bcf9	-0.04363725
31	0xbd1b81ac	-0.03796546
32	0x3df9a7f5	0.121902384
33	0xbe1360e4	-0.1439243
34	0x3c18d94e	0.009329153
35	0x3dfbdfc5	0.1229854
36	0xbd6065bb	-0.054784518
37	0x3dae7be5	0.08519725
38	0x3bda06f3	0.0066536604
39	0x3e027c56	0.12742743
40	0x3df86214	0.12128082
41	0xbd92cab2	-0.07167567
42	0xbe2726c0	-0.16323376
43	0xbe1c9a4f	-0.15293239
44	0xbdaa2fbe	-0.08309887
45	0x3d97696a	0.07393153
46	0xbb03b48e	-0.0020096633
47	0xbd0ca238	-0.03433439
48	0x3df73254	0.12070146
49	0xbc93c662	-0.018038932
50	0x3ba5ab89	0.005055849
51	0xbe1b1038	-0.15142906
52	0x3dd10d89	0.1020766
53	0x3e26cd40	0.16289234
54	0xbdd71054	-0.10501161
55	0xbdcf703b	-0.10128828
56	0xbdd127b2	-0.102126494
57	0x3dabf082	0.083954826
58	0x3e5f3977	0.21799265
59	0x3deca111	0.115541585
60	0xbd855dfe	-0.06512068
61	0xbcd00460	-0.025392711
62	0x3dfeb9a0	0.12437749
63	0x3d88e567	0.0668438
64	0xbd6815c6	-0.05666139
65	0xbda544fe	-0.080698
66	0xbdd5e9e9	-0.104450054
67	0x3e1b4d43	0.15166192
68	0x3dcf587a	0.101242974
69	0x3b30a892	0.0026955944
70	0xbdb529cb	-0.08845862
71	0xbc4acd0f	-0.012377991
72	0xbdede2e4	-0.116155416
73	0xbe119de0	-0.14220381
74	0x3e1c8f68	0.1528908
75	0xbdfe84ba	-0.12427659
76	0x3d9cdc43	0.07659199
77	0x3e1ebb27	0.1550108
78	0xbda287cd	-0.07936058
79	0x3e2e9f31	0.17052914
80	0xbe00ca41	-0.12577154
81	0xbe09f62d	-0.13472815
82	0xbdb43e6d	-0.08800969
83	0x3c4c69be	0.012476383
84	0xbe1d511f	-0.15362976
85	0xbde54f63	-0.111967824
86	0x3d9c6cb7	0.07637923
87	0x3bdb49bc	0.0066921394
88	0xbdfc95f1	-0.123332866
89	0xbd70c3cd	-0.05878048
90	0xbd07f176	-0.03318926
91	0x3c2d7e20	0.010589153
92	0xbdbeb19d	-0.09311221
93	0xbe046e86	-0.12932786
94	0xbcf66a4b	-0.030079981
95	0x3d3b4b12	0.04572589
96	0xbd26906a	-0.040665068
97	0x3d5b7e00	0.05358696
98	0xbdac11bd	-0.08401821
99	0x3dd01b4a	0.10161455
100	0xbd1611b2	-0.03663797
101	0xbe03af56	-0.12859854
102	0xbdfcdda9	-0.12346966
103	0xbcca1e6c	-0.02467271
104	0xbe188298	-0.14893568
105	0xbdc94102	-0.098268524
106	0x3e1ae975	0.1512812
107	0x3d8a76a1	0.06760908
108	0x3ce2c22c	0.027680479
109	0x3d745bcc	0.059657857
110	0xbde931c2	-0.11386444
111	0x3d8fb546	0.07016997
112	0xbdc728b3	-0.0972456
113	0x3dcfd768	0.10148507
114	0xbdad69dc	-0.08467457
115	0x3de4639d	0.11151812
116	0xbdf21b12	-0.118215695
117	0xbdfc82d5	-0.12329642
118	0xbdbf74a5	-0.0934842
119	0x3e2116f8	0.15731418
120	0x3da3987e	0.0798807
121	0xbd55d644	-0.052206293
122	0x3a663832	0.00087821775
123	0x3d9f6ed5	0.077848114
124	0x3da500ad	0.080567695
125	0xbe13d1c8	-0.14435494
126	0x3dc2623d	0.09491394
127	0x3d0af501	0.03392506
128	0x3e51e301	0.20496751
129	0x3d2d6467	0.04233208
130	0x3ceb544f	0.028726725
131	0xbe0672c4	-0.13129717
132	0xbbd101bd	-0.006378381
133	0x3e1d7255	0.15375645
134	0x3e2efd3c	0.17088789
135	0xbc5118fb	-0.012762303
136	0x3e43e0ea	0.19128767
137	0xbcc14a21	-0.023594918
138	0xbe385797	-0.18002163
139	0xbdec3aea	-0.115346745
140	0xbdceee41	-0.10104037
141	0xbc7b9bb9	-0.015356951
142	0xbd91df42	-0.07122661
143	0xbe1eea39	-0.15519036
144	0x3e3533ee	0.17695591
145	0xbc90a40b	-0.017656347
146	0x3e5a3862	0.21310571
147	0xbe3c6d88	-0.18401158
148	0x3dbe1e6d	0.09283147
149	0x3c4ce4c5	0.012505715
150	0x3e19d96f	0.1502435
151	0x3e222f6a	0.158384
152	0xbdaf1fcd	-0.085509874
153	0x3dd2636b	0.10272869
154	0x3d450105	0.048096675
155	0x3e140290	0.14454103
156	0xbd16c55c	-0.03680931
157	0xbdbbde51	-0.09173263
158	0xbdfe36ac	-0.124127716
159	0x3dec5ffa	0.115417436
160	0x3d734ba0	0.059398293
161	0xbdcf732e	-0.10129391
162	0xbc3e05fe	-0.011598108
163	0xbe0e7ca1	-0.1391473
164	0x3d1c8a7d	0.03821801
165	0xbdec59db	-0.11540576
166	0x3ddf38f4	0.10899535
167	0x3ddad5aa	0.106852844
168	0xbe264260	-0.16236258
169	0x3d783e3b	0.060606223
170	0xbdfd9b59	-0.12383146
171	0xbdefb01f	-0.11703514
172	0x3e09b7c6	0.1344901
173	0xbe031c3e	-0.12803742
174	0xbd8b97a3	-0.06816032
175	0x3e0523db	0.13001959
176	0x3db067cb	0.08613547
177	0xbd871837	-0.065964155
178	0x3e27af3f	0.16375445
179	0xbba4e5ad	-0.0050322623
180	0xbe1b7e78	-0.15184963
181	0xbe2f7adf	-0.17136715
182	0x3e068fa2	0.13140729
183	0x3d56340f	0.05229574
184	0x3de802b4	0.113286406
185	0xbd740d6e	-0.05958312
186	0x3ca83230	0.020531744
187	0xbd4c6fef	-0.049911436
188	0xbd7d0a36	-0.061777316
189	0x3cedeb01	0.029042723
190	0x3e2cf736	0.16891178
191	0x3e38a0db	0.18030111
192	0xbd67ce79	-0.056593392
193	0x3d82daeb	0.063894115
194	0xbdec310d	-0.11532793
195	0x3e3c837e	0.18409535
196	0x3bce688a	0.006299083
197	0x3c130f71	0.0089758495
198	0xbda24b05	-0.07924465
199	0x3e0f2dad	0.13982268
200	0x3c91a947	0.017780913
201	0xbcf6df8f	-0.030135898
202	0xbe247223	-0.16059165
203	0xbd49e44b	-0.049289983
204	0xbdd245a3	-0.102671884
205	0x3c95181d	0.018199975
206	0xbd9670c6	-0.073457286
207	0xbdbd8233	-0.09253349
208	0x3c0e1335	0.0086715715
209	0xbc3c837f	-0.0115059605
210	0xbdb78d20	-0.08962464
211	0x3d290d4c	0.041272447
212	0x3cf92fd1	0.030418308
213	0x3e0aa3f5	0.13539107
214	0x3d80fb45	0.06297926
215	0xbdafa035	-0.08575479
216	0x3e187c61	0.14891197
217	0x3caed302	0.02134085
218	0x3a87273e	0.0010311378
219	0x3cf58b55	0.029973665
220	0xbda0bcc7	-0.078485064
221	0x3dca6685	0.09882835
222	0xbe32fa69	-0.17478336
223	0xbdea78ab	-0.11448797
224	0xbd99ba87	-0.075062804
225	0xbddf8d62	-0.109156385
226	0xbdf6996d	-0.120409824
227	0x3d91b1ef	0.07114016
228	0xbdb8ccab	-0.09023412
229	0x3d96d5f7	0.07365029
230	0x3e041ebc	0.12902349
231	0x3bae2953	0.005314985
232	0xbd914930	-0.070940375
233	0xbe07f821	-0.13278247
234	0x3e179b89	0.14805426
235	0x3e47c7cb	0.19509809
236	0x3ddfcd15	0.10927788
237	0xbd9261fd	-0.07147596
238	0xbd08d823	-0.03340925
239	0x3cd92ffe	0.026512142
240	0xbceb4f86	-0.028724443
241	0x3e1f15ec	0.15535706
242	0x3d41a05d	0.047272075
243	0xbe278a97	-0.16361462
244	0x3dcf1636	0.10111658
245	0xbdd28635	-0.10279504
246	0xbdd4c271	-0.10388649
247	0x3d8bb3dd	0.068214156
248	0xbe0a5096	-0.13507304
249	0xbc2ef6ab	-0.010678927
250	0x3d0a3d6e	0.03374999
251	0xbe37e429	-0.1795813
252	0x3b3d49ae	0.0028883028
253	0x3d7581a7	0.0599381
254	0x3c5fba1b	0.013655211
255	0x3c0d304f	0.008617475

StatefulPartitionedCall/sequential/dense_1/BiasAdd/ReadVariableOp:0 f4 [64]
0	0x3e808054	0.25097907
1	0x3dbbf513	0.091776036
2	0xbd4b88b8	-0.049690932
3	0x3e2273f6	0.15864548
4	0x3db173e6	0.08664684
5	0x3cb11916	0.021618407
6	0x3eb09d94	0.34495223
7	0x3da7218b	0.08160695
8	0x3c736582	0.014855744
9	0xbb70e522	-0.0036757668
10	0x3d1aece6	0.03782358
11	0xbe0b9753	-0.13631944
12	0x3d825090	0.06363022
13	0xbce0abf8	-0.027425751
14	0xbc62c5bd	-0.01384109
15	0x3da35f75	0.07977191
16	0xbd95d07d	-0.073151566
17	0x3dae9058	0.08523625
18	0xbc8f89c0	-0.017521739
19	0x3e4cccd4	0.2000001
20	0xbd8a5a6d	-0.067555286
21	0x3dc92fa5	0.098235406
22	0xbc147af1	-0.009062515
23	0x3dc8fbe6	0.09813671
24	0x3dc4f5b9	0.096171804
25	0x3e9d221d	0.3069009
26	0xbc631288	-0.013859399
27	0xbd004eaa	-0.03132502
28	0x3e92f695	0.28703752
29	0x3e5771a9	0.21039452
30	0xbd9dcd34	-0.07705155
31	0x3d87950d	0.06620226
32	0x3dfc77f8	0.1232757
33	0x3cb5eb09	0.0222068
34	0xbcb52f36	-0.022117238
35	0xbd21cea0	-0.039503694
36	0xbc93ee7c	-0.018058054
37	0x3d601d92	0.0547157
38	0x3e7c29a6	0.24625263
39	0x3cfca6bf	0.03084123
40	0x3b73e29b	0.0037213925
41	0x3e90a6cb	0.28252253
42	0xbd37223d	-0.044710387
43	0x3e375b45	0.1790591
44	0xbd630f64	-0.0554346
45	0xbbc06443	-0.005871327
46	0x3e265e09	0.16246809
47	0xbdb42931	-0.08796919
48	0x3da201b9	0.07910485
49	0xbc98ca3f	-0.018651126
50	0x3d5af90c	0.053460166
51	0xbcf88ded	-0.030341113
52	0x3dedf74a	0.11619432
53	0x3e2828b5	0.16421779
54	0xbbed83fd	-0.0072484002
55	0x3e8b4e55	0.272082
56	0x3c21cb6a	0.009875158
57	0x3d1fe318	0.039034933
58	0x3e0e88c0	0.13919353
59	0x3dae60f7	0.08514588
60	0x3e2d5b9d	0.16929479
61	0x3e68a3b3	0.22718696
62	0x3d53bda3	0.051694524
63	0xbcd2b83e	-0.02572262

StatefulPartitionedCall/sequential/dense/MatMul/ReadVariableOp:0 f4 [37, 128]
0	0x3c6fb4c7	0.014630503
1	0x3996e20d	0.0002877865
2	0x3c7fd92f	0.015615745
3	0x3c11844f	0.0088816425
4	0xbdd814f5	-0.10550872
5	0x3e3e05fd	0.18556972
6	0x3e19b3c6	0.15009984
7	0xbc9d440d	-0.019197488
8	0x3e49592f	0.19662927
9	0xbd91e7de	-0.07124303
10	0xbd0ba474	-0.03409238
11	0x3bfb41c9	0.0076677543
12	0x3e78d3bc	0.2429952
13	0x3c3ef8d0	0.011656001
14	0x3e012935	0.12613375
15	0xbe06c0cc	-0.13159484
16	0x3e3e574f	0.18587993
17	0xbcb04b96	-0.021520417
18	0x3e2b0ba5	0.16703661
19	0xbd504b87	-0.05085328
20	0xbdced4be	-0.10099171
21	0x3e05fd99	0.13085021
22	0x3d5896e5	0.05287828
23	0x3dd20bf0	0.10256183
24	0x3de4158b	0.111369215
25	0xbe152c77	-0.14567743
26	0xbe19dca2	-0.15025571
27	0x3ea6bbc1	0.3256512
28	0xbaff8a5e	-0.0019496193
29	0xbda72b3e	-0.08162545
30	0x3e8b7c84	0.27243435
31	0x3dd223e8	0.10260755
32	0xbe1c77aa	-0.15280023
33	0x3db73c97	0.089471035
34	0xbd8b0318	-0.067876995
35	0xbd00d9a2	-0.03145755
36	0xbdbfaa1f	-0.0935862
37	0x3c53f190	0.012936011
38	0x3ce2ca09	0.027684228
39	0x3e1d7291	0.15375735
40	0x3de6ffce	0.112792596
41	0x3c53c1c6	0.012924617
42	0xbe399afe	-0.18125531
43	0x3db9c487	0.09070688
44	0x3e86f8ac	0.26361597
45	0xbdb70b41	-0.089376934
46	0x3d9f835e	0.07788728
47	0x3e977a9f	0.2958574
48	0x3e1a168d	0.15047665
49	0xbdda06aa	-0.10645802
50	0xbe2dc4bf	-0.16969584
51	0x3e8f2962	0.2796126
52	0x3e1c22e8	0.1524769
53	0xbc970617	-0.018435521
54	0x3d47f29d	0.04881536
55	0x3e594b7d	0.21220203
56	0x3e8a4888	0.27008462
57	0xbcb261fb	-0.021775236
58	0x3d0ef02d	0.03489702
59	0x3e349c77	0.17637812
60	0x3d87312b	0.06601175
61	0xbd0831e5	-0.033250708
62	0xbe3565b7	-0.17714582
63	0x3e0e7868	0.13913119
64	0xbd7d0c5b	-0.06177936
65	0xbcdb8fb5	-0.026801923
66	0x3df3397f	0.11876201
67	0x3da54082	0.080689445
68	0x3e2be5fa	0.16786948
69	0xbda50875	-0.08058254
70	0x3dd25093	0.102692746
71	0x3e6116cb	0.21981351
72	0xbddb205a	-0.1069953
73	0xbd0293a9	-0.0318791
74	0x3e1e7f20	0.15478182
75	0x3e3884fe	0.18019482
76	0x3da9ff8a	0.08300693
77	0x3e924819	0.2857063
78	0xbc4b096d	-0.012392384
79	0xbe15f98c	-0.14645976
80	0xbdc5f737	-0.09666293
81	0x3de3fc84	0.11132148
82	0xbe29bfad	-0.16577025
83	0xbba40814	-0.005005846
84	0xbe1be406	-0.15223703
85	0xbdd0fc54	-0.10204378
86	0xbdddb097	-0.108246975
87	0x3d6f7c72	0.05846829
88	0x3d62902b	0.05531327
89	0x3e0287c3	0.12747101
90	0x3cad8db0	0.021185726
91	0xbd229a67	-0.03969803
92	0xbe302e5a	-0.17205182
93	0xbd2e2b03	-0.042521488
94	0xbde81dc4	-0.11333802
95	0xbe23a48d	-0.1598074
96	0x3e35e8b9	0.17764558
97	0x3e062597	0.13100277
98	0xbc8aeb27	-0.016957833
99	0xbe5594c4	-0.20857531
100	0x3e3aab38	0.18229377
101	0xbe1ab111	-0.15106608
102	0x3df7c528	0.120981514
103	0x3e013cc6	0.1262084
104	0x3d168154	0.03674443
105	0x3d9d3931	0.07676924
106	0xbe08de37	-0.13366018
107	0x3bf76fe0	0.0075511783
108	0x3e75d774	0.2400797
109	0x3db2c9aa	0.087298706
110	0x3e3bf4a9	0.18355049
111	0x3e569987	0.20957004
112	0x3d7ddf37	0.061980452
113	0x3e52aad9	0.20572986
114	0xbd0e807c	-0.0347905
115	0x3c7f0785	0.015565758
116	0x3bb38035	0.00547793
117	0xbd7d641f	-0.06186306
118	0xbd4b0418	-0.04956445
119	0xbe231f9f	-0.15930031
120	0xbe205adb	-0.15659659
121	0x3e175c52	0.14781311
122	0xbc906a9c	-0.01762896
123	0x3e30b9ec	0.17258424
124	0x3e87f22f	0.2655196
125	0x3bfdebdd	0.0077490644
126	0xbc379bef	-0.011206611
127	0xbe1d2a2c	-0.15348119
128	0xbde0da2c	-0.10979113
129	0x3cfcb5c8	0.030848399
130	0xbd4ed28d	-0.050493766
131	0xbdf205db	-0.11817523
132	0x3c95ca37	0.0182849
133	0x3e387578	0.18013561
134	0xbd0a2f6c	-0.03373663
135	0x3d33bfc4	0.043884054
136	0x3d269604	0.04067041
137	0xbdb2a3a4	-0.08722618
138	0x3e3e71e0	0.18598127
139	0xbd19841b	-0.0374795
140	0x3d1e72e9	0.038683806
141	0x3d9dd244	0.077061206
142	0x3e40fa98	0.18845594
143	0xbe164fe0	-0.14678907
144	0x3e634981	0.22196008
145	0x3de830c5	0.11337427
146	0xbdeea4ef	-0.11652552
147	0xbe29bee4	-0.16576725
148	0x3dda76e9	0.106672116
149	0xbdc00ac5	-0.09377054
150	0x3da997a4	0.08280876
151	0x3e12a5dc	0.14321083
152	0xbe17c213	-0.14820127
153	0xb8792182	-5.9397433e-05
154	0xbd0ca656	-0.034338318
155	0x3d980cdc	0.07424328
156	0xbc06ca4d	-0.008226943
157	0x3d897a97	0.06712835
158	0x3d17ec28	0.03709045
159	0xbe31da79	-0.17368497
160	0xbe0fe0df	-0.14050625
161	0x3df66892	0.12031664
162	0x3e19548e	0.14973661
163	0x3cbeead6	0.023305338
164	0x3dfc2522	0.1231177
165	0x3da67a45	0.0812879
166	0xbdd28fbf	-0.10281324
167	0x3d7588c5	0.059944887
168	0x3d558427	0.052127983
169	0xbcb853b0	-0.022500843
170	0xbd369cd8	-0.04458317
171	0x3d47c4a4	0.048771515
172	0xbe3a8164	-0.18213421
173	0x3dd32260	0.10309291
174	0xbd9f3e5d	-0.07775567
175	0xbcbe6301	-0.023240568
176	0x3d585d0e	0.05282312
177	0xbe50f6bf	-0.20406626
178	0xbdc19fc7	-0.09454303
179	0xbda507db	-0.08058139
180	0x3d945e79	0.07244582
181	0xbdb4a5c5	-0.088206805
182	0x3e44864b	0.19191854
183	0xbe2e42c9	-0.17017664
184	0x3dd1fc65	0.102532186
185	0x3e204018	0.1564945
186	0xbe2d060f	-0.16896842
187	0xbd87b9a3	-0.06627204
188	0xbc285c80	-0.01027596
189	0xbcee1c98	-0.029066369
190	0xbdb37e14	-0.08764282
191	0xbc01ed00	-0.00793004
192	0xbbaea2d0	-0.0053294674
193	0x3de9e1c7	0.11420017
194	0xbe190edb	-0.14947073
195	0x3ddc9018	0.10769671
196	0x3d00d5d8	0.031453937
197	0xbd200130	-0.039063632
198	0xbda3b590	-0.07993615
199	0x3dc254af	0.09488808
200	0xbd50d298	-0.050982088
201	0xbcb3ffe8	-0.021972612
202	0x3cb1e840	0.02171719
203	0xbd221f6c	-0.039580747
204	0x3cdceb68	0.02696772
205	0x3dc7833e	0.09741829
206	0x3e428201	0.18994905
207	0xbda79b64	-0.08183935
208	0xbd82effa	-0.06393428
209	0xbcd9ef48	-0.026603356
210	0x3e325856	0.1741651
211	0xbd648de4	-0.05579938
212	0xbd8cc2c3	-0.06873085
213	0x3dc20ca4	0.09475067
214	0x3d1eec16	0.038799368
215	0x3e2146f5	0.15749724
216	0x3c866b98	0.016408727
217	0xbe0367ec	-0.12832612
218	0x3cd693ae	0.026193466
219	0x3d49daf8	0.04928109
220	0x3de703a4	0.11279991
221	0xbe0d6310	-0.1380732
222	0xb9508400	-0.000198856
223	0xbe229829	-0.15878357
224	0xbcd6b30a	-0.02620842
225	0xbdadd27d	-0.08487413
226	0xbcd98208	-0.026551262
227	0x3b1b817d	0.0023728304
228	0x3c9334fd	0.017969603
229	0xbd758458	-0.059940666
230	0x3e00a2b4	0.12562066
231	0xbe1547b6	-0.14578137
232	0xbe342b8a	-0.17594734
233	0x3d9a1e16	0.0752527
234	0xbe0c0ac7	-0.13675986
235	0x3d211e44	0.039335504
236	0x3e01f2b4	0.1269024
237	0x3e2b7f18	0.16747701
238	0xbd9c681d	-0.076370455
239	0xbc4e387c	-0.012586709
240	0x3b9ed0a7	0.0048466506
241	0xbd1fa525	-0.038975853
242	0x3d7f0e38	0.06226942
243	0x3df105be	0.11768673
244	0xbe26f24b	-0.16303365
245	0xbe06b261	-0.13153984
246	0x3e19eefa	0.15032569
247	0x3b8d9c20	0.00432159
248	0x3e07c8c8	0.13260186
249	0x3e1de49d	0.1541924
250	0x3ddeda2b	0.10881456
251	0x3cad51d8	0.02115719
252	0x3e7f69fb	0.24942772
253	0xbe0a9c0c	-0.1353609
254	0xbc5cfddf	-0.013488262
255	0x3cf577cc	0.02996435

StatefulPartitionedCall/sequential/dense/BiasAdd/ReadVariableOp:0 f4 [128]
0	0xbb00e2c3	-0.001966641
1	0xbd23cec9	-0.039992128
2	0x3d2a1d41	0.041531805
3	0x3c8abec9	0.016936677
4	0xbc8b6b82	-0.017019037
5	0xbc180760	-0.009279102
6	0x3c722c6e	0.014781101
7	0x3dab027d	0.08350084
8	0xbd54e85b	-0.051979404
9	0x3dca1ebd	0.09869144
10	0x3d00f60c	0.03148465
11	0x3ad68f06	0.0016369529
12	0x3e772ef8	0.24139011
13	0x3c9378b4	0.018001892
14	0x3d683001	0.056686405
15	0x3e46b777	0.19405924
16	0xbc1e4879	-0.0096608335
17	0xbd14064d	-0.03613882
18	0x3cb10b20	0.02161175
19	0xbd997cad	-0.07494483
20	0xbd106e29	-0.035261307
21	0x3d3e5ba8	0.04647413
22	0x3e4ad387	0.19807254
23	0x3e106bb1	0.14103581
24	0x3e12508b	0.14288537
25	0xbd58c6bb	-0.0529239
26	0x3e027cae	0.12742874
27	0xbd69605f	-0.056976672
28	0xbd26c18c	-0.040711924
29	0x3d2fad9c	0.042890176
30	0x3cf1a0ba	0.029495586
31	0xbd001d33	-0.031277847
32	0x3e097b61	0.13425972
33	0x3de8e41b	0.11371633
34	0x3cc02462	0.023454849
35	0x3de4fe00	0.11181259
36	0xbc55ebef	-0.013056739
37	0x3d05756e	0.032582693
38	0x3c655b3a	0.013998801
39	0x3d9f1971	0.077685244
40	0xbcace524	-0.021105357
41	0x3e8032f1	0.25038865
42	0x3a1823e2	0.0005803687
43	0x3ddf635d	0.10907624
44	0x3c097892	0.008390563
45	0x3b2e7bcf	0.0026624089
46	0x3d119a2d	0.035547424
47	0x3d35a453	0.044346165
48	0xbd22303a	-0.039596774
49	0x3d4e72ba	0.05040238
50	0x3e6cf512	0.23140362
51	0xbd8561ce	-0.065127954
52	0xbc840092	-0.016113553
53	0xbe034989	-0.1282102
54	0x3da2c7df	0.07948279
55	0xbc8cb10b	-0.017174264
56	0x3e0d2e20	0.13787127
57	0xbcc5b674	-0.024134852
58	0x3d9ae58b	0.07563313
59	0x3d63dd64	0.055631056
60	0x3c732b8e	0.014841927
61	0x3cb2049b	0.021730712
62	0x3dfd914e	0.1238123
63	0xbdaef3be	-0.08542584
64	0xbbac630d	-0.005260831
65	0x3d1060ac	0.035248443
66	0xbd3c9226	-0.046037816
67	0x3d3fc67d	0.046820153
68	0x3d567d50	0.0523656
69	0x3e04dc0f	0.1297457
70	0xbda620b2	-0.08111705
71	0xbd3a1905	-0.045434017
72	0x3bec041d	0.007202639
73	0xbd15d3f3	-0.036579084
74	0xbd611d45	-0.054959554
75	0xbd43515a	-0.047685005
76	0x3d18ec25	0.03733458
77	0x3e7089fe	0.2349014
78	0xbd3c7053	-0.04600556
79	0x3e666416	0.22499117
80	0x3c044b1e	0.00807455
81	0xbd80e542	-0.062937275
82	0x3dc838fb	0.09776493
83	0x3d99d59d	0.075114466
84	0x3dba4038	0.0909428
85	0x3e6c5397	0.23078762
86	0x3e44af46	0.19207487
87	0x3be94b0b	0.0071195415
88	0xbd5bffd3	-0.05371077
89	0xbd25c720	-0.040473104
90	0xbd18595d	-0.0371946
91	0x3ce6511e	0.028114852
92	0x3d23bcaf	0.039974865
93	0x3e092e74	0.13396627
94	0xbdb18514	-0.08667961
95	0xbcc15782	-0.023601297
96	0xbd36ade9	-0.044599447
97	0x3c3e8c2c	0.011630099
98	0x3e8e31ac	0.27772272
99	0x3e6b0383	0.22950558
100	0xbc49244c	-0.01227672
101	0x3e041e04	0.12902075
102	0xbc2ce3d8	-0.010552369
103	0x3e3e357d	0.18575092
104	0x3d8d9e02	0.06914903
105	0xbd0715ae	-0.03297966
106	0x3e469c17	0.19395481
107	0xbd4cee1a	-0.05003176
108	0x3d7b29a8	0.061319023
109	0x3dd2dfde	0.102966055
110	0xbd8b32ee	-0.067968234
111	0x3d9a63f2	0.07538594
112	0x3dc4a2ad	0.096013404
113	0xbcb5fe4e	-0.022215988
114	0xbcee85b8	-0.029116496
115	0xbd2616fc	-0.040549263
116	0x3d9c2944	0.07625058
117	0x3db9bf34	0.09069672
118	0x3e080d09	0.13286223
119	0xbd3c7b32	-0.046015926
120	0x3adc858d	0.0016824469
121	0xbd9a5594	-0.07535854
122	0xbd92ff30	-0.071775794
123	0xbd8b633c	-0.06806037
124	0xbd1f2769	-0.038855944
125	0xbd025c97	-0.03182658
126	0x3c8e4cba	0.01737057
127	0x3d0be099	0.03414974
